Python/pingpong_ai/dqn_pong_model.pth (torch, 40654 bytes, 6 tensors)

net.0.weight f4 [128, 7]
0	0xbf5533be	-0.8328208
1	0xbef64bf0	-0.4810481
2	0x3f992789	1.196519
3	0xbfceb6bf	-1.614952
4	0xbf9afe4c	-1.2108855
5	0x3f052910	0.5201578
6	0xbecd0936	-0.4004609
7	0xbfb6487a	-1.4240868
8	0xc0354fd1	-2.8329966
9	0xbe15124e	-0.14557764
10	0xbfe29dbb	-1.7704386
11	0xbe9fa4cf	-0.31180426
12	0xbf26c6ba	-0.6514698
13	0xbfa511ff	-1.2896117
14	0x3ebe361f	0.37150666
15	0xbea46ab1	-0.3211265
16	0xbf7cbb55	-0.98723346
17	0xc00ce347	-2.201372
18	0xbf77a035	-0.9672883
19	0xbebbf5ae	-0.36710876
20	0xbe183658	-0.1486448
21	0xc00832b1	-2.128094
22	0xc08434ef	-4.1314616
23	0x3e845b1a	0.25850755
24	0xbf983943	-1.1892475
25	0xbfb20d33	-1.3910278
26	0x3ec58df3	0.3858486
27	0x3fd84691	1.6896535
28	0x3caf7270	0.021416873
29	0xbdde4cd0	-0.108544946
30	0xbda9eca4	-0.08297089
31	0xbbc32080	-0.005954802
32	0x3de3d8d4	0.11125341
33	0x3cafd140	0.021462083
34	0x3d69df98	0.057098
35	0xbe43fbfb	-0.19139092
36	0xbe81eb51	-0.25374845
37	0x3e7ff06f	0.24994062
38	0xbef178a1	-0.47162345
39	0x3e2ce8d9	0.168857
40	0x3e2987cc	0.16555709
41	0xbf4507cb	-0.76965016
42	0xbf5406bf	-0.82822794
43	0xc006d77a	-2.1069016
44	0xbfeb57f7	-1.838622
45	0x3f17c21e	0.59280574
46	0xbd888a94	-0.06667057
47	0x3da2c1b2	0.07947101
48	0xbfbd1104	-1.4770818
49	0x3e97e129	0.2966397
50	0xbef8f214	-0.4862219
51	0x3d727601	0.05919457
52	0xbcaf6ad5	-0.021413246
53	0xbd8f762f	-0.070049636
54	0x3d4ded5e	0.0502752
55	0xbe296011	-0.16540553
56	0xbe55484e	-0.20828363
57	0xbe49d266	-0.19709167
58	0x3dc90d23	0.09816959
59	0xbf222bd0	-0.633481
60	0xbd0263d9	-0.031833503
61	0xbdb5595b	-0.08854934
62	0xbe087211	-0.13324763
63	0xbe0aa214	-0.1353839
64	0xbe9131d5	-0.2835833
65	0xbf2b02a5	-0.6680091
66	0xbf060654	-0.52353406
67	0x3e38a94e	0.18033335
68	0xbeab1213	-0.33412227
69	0xbe608a14	-0.21927673
70	0xc013cace	-2.3092532
71	0xc022d2bb	-2.544112
72	0x3e59f84d	0.21286125
73	0xc0530026	-3.296884
74	0xbfa53f47	-1.2909936
75	0xbf56ab24	-0.8385489
76	0xbd014888	-0.03156331
77	0xbc8f6030	-0.01750192
78	0xbea4ae71	-0.32164338
79	0xbf53f2fd	-0.82792646
80	0xbc8c870d	-0.017154241
81	0xbe95b509	-0.2923968
82	0x3f3d7f9b	0.74022835
83	0x3cefe5bc	0.02928435
84	0xbee04bb5	-0.4380776
85	0xbf0daed0	-0.5534487
86	0x3f450758	0.7696433
87	0xc09a34a5	-4.8189263
88	0xbe2953d2	-0.16535881
89	0x3f781c45	0.96918136
90	0xbf4c3b9c	-0.79778457
91	0x3f6f5212	0.93484604
92	0xbe561738	-0.20907295
93	0x3ebfc6f6	0.37456483
94	0xbfc4791c	-1.534946
95	0xbf73a4a1	-0.9517308
96	0x3f3f510c	0.7473304
97	0xbe4383eb	-0.19093291
98	0x3e666843	0.2250071
99	0xbeafb649	-0.3431876
100	0xc006fc6b	-2.1091564
101	0xbf671317	-0.90263504
102	0xbd86c399	-0.06580276
103	0xbe9c8f5a	-0.3057812
104	0xbf776e06	-0.9665226
105	0xbefdaaea	-0.4954446
106	0xbc919a5b	-0.017773798
107	0xbea2411c	-0.316903
108	0x3f76876f	0.96300405
109	0x3f666d99	0.9001098
110	0x3f9b9412	1.2154562
111	0xbf192eeb	-0.59837216
112	0xbff9611c	-1.948276
113	0x3d700d24	0.058606282
114	0xba20eff1	-0.00061392697
115	0x3f7be8da	0.9840218
116	0xbd3ba0ba	-0.045807578
117	0xbe1411aa	-0.14459863
118	0xbf7db83c	-0.99109244
119	0x3f466b6e	0.77507675
120	0xbeab8aea	-0.3350442
121	0x3d4c3cdc	0.049862728
122	0xbf52f411	-0.82403666
123	0x3f3d8614	0.7403271
124	0x3f66a79e	0.90099514
125	0x3f148684	0.58017755
126	0xbed5148a	-0.41617233
127	0xbe974e33	-0.2955185
128	0xbe94e7c6	-0.2908308
129	0x3fc395af	1.5280055
130	0x3f55c9ea	0.8351122
131	0x3f037250	0.513463
132	0xbe8956b1	-0.26823953
133	0x3ef07577	0.4696462
134	0xbf2d8c8b	-0.67792577
135	0x3e9e9c2d	0.30978528
136	0xc0511053	-3.2666214
137	0xbdac440c	-0.084114164
138	0xbe43b4eb	-0.19111983
139	0xbf6c05c2	-0.92196286
140	0xbdcac420	-0.09900689
141	0xbebbc1fb	-0.36671433
142	0x3bc0e826	0.0058870493
143	0x40122a12	2.2838178
144	0x3e40ed78	0.18840587
145	0x3e193795	0.14962609
146	0xbea5654c	-0.32303846
147	0xbe438bae	-0.19096252
148	0x3e88e255	0.26735178
149	0x3ea5c09a	0.32373506
150	0xbe352d48	-0.17693055
151	0x3c8526e0	0.016253889
152	0x3c868b0b	0.016423723
153	0xbe27c74b	-0.16384618
154	0xbe0ff8dc	-0.14059776
155	0x3e2e952a	0.17049089
156	0xbf967e91	-1.1757375
157	0xbe60610b	-0.21912019
158	0x3ecfec08	0.40609765
159	0xbf7bde9a	-0.9838654
160	0x3eda17aa	0.4259618
161	0xbe23f294	-0.16010505
162	0xbe97ecb9	-0.29672793
163	0xbf906bbe	-1.128288
164	0x3e0a47f7	0.13504015
165	0xbe0a9649	-0.13533892
166	0x3f523975	0.8211892
167	0x3e4b6b37	0.19865118
168	0xbdb456e8	-0.088056386
169	0x3d1d2773	0.0383677
170	0x3ed1a920	0.40949345
171	0x3da19377	0.07889455
172	0xbb9a39d0	-0.004706599
173	0xbc979a0c	-0.018506072
174	0x3dd7cd6f	0.1053723
175	0xbf6ccfcc	-0.9250457
176	0xc0107470	-2.2571068
177	0x3e0a3521	0.1349683
178	0xbf9081a9	-1.1289569
179	0xbdc2b18e	-0.09506522
180	0x3c0ace96	0.0084721055
181	0xbfdbd401	-1.7174073
182	0x3e747ee6	0.23876533
183	0xbdd6e294	-0.10492435
184	0xbd299b00	-0.041407585
185	0x3e9920bf	0.29907796
186	0x3e12dd96	0.14342341
187	0xbdf16b78	-0.11788076
188	0xbea3d474	-0.31998026
189	0xbf91832a	-1.1368153
190	0xbfcdb30c	-1.6070266
191	0x3e36aec1	0.17840101
192	0xbdff371d	-0.12461684
193	0x3da6f91c	0.081529826
194	0xbd814e44	-0.06313756
195	0xbec3147f	-0.38101575
196	0xbd8f9568	-0.07010919
197	0xbfa3bc2b	-1.2791799
198	0xbf6db13a	-0.9284855
199	0xbf8f3292	-1.1187308
200	0x3e6501f4	0.22364026
201	0x3dff1ad6	0.124562904
202	0xbf1e6092	-0.61866105
203	0xbfa7c512	-1.3107016
204	0xbf074b74	-0.5284951
205	0xbea40ff4	-0.3204342
206	0xbf654146	-0.89552724
207	0xbe964ab4	-0.2935387
208	0x3f3c6ba2	0.73601735
209	0x3f145c4e	0.57953346
210	0xbc8ce209	-0.017197626
211	0xbd037b58	-0.03210005
212	0xbe263cb3	-0.16234092
213	0x3e2f51a9	0.17120995
214	0x3b27c877	0.0025601664
215	0x3dfb3a7a	0.12267013
216	0xbe92960b	-0.286301
217	0xbfdc60a1	-1.7216989
218	0xbf85db91	-1.0457631
219	0x3f7520b1	0.9575301
220	0xbed875f3	-0.42277488
221	0xbf899c1a	-1.0750763
222	0xbf33c6a4	-0.70224977
223	0x3f970293	1.179766
224	0xbf80bb24	-1.0057111
225	0xbfe379c0	-1.777153
226	0x3f123699	0.5711456
227	0xbfa1471c	-1.2599826
228	0xbbbe1518	-0.0058008544
229	0x3d418215	0.047243197
230	0xbd10a836	-0.03531667
231	0x3d981e16	0.074276134
232	0xbea8edfb	-0.32994065
233	0x3fb6d074	1.4282365
234	0xbf55d4ba	-0.8352772
235	0xbf8ebcad	-1.1151329
236	0x3f80003a	1.0000069
237	0x3e903693	0.28166637
238	0xbf303650	-0.68832874
239	0xbf7b299d	-0.9811037
240	0x3e65b44d	0.2243206
241	0xbf98b08c	-1.1928878
242	0x3f32131c	0.6956041
243	0x3ea17716	0.31536168
244	0xbf7e1dbb	-0.99264115
245	0x3e9c3320	0.30507755
246	0xbd2f3e1b	-0.042783838
247	0xbeb80430	-0.35940695
248	0x3e63fd01	0.22264482
249	0x3c67cff3	0.0141487
250	0x3cf772fd	0.030206198
251	0x3d974468	0.07386094
252	0xbf120b20	-0.57048225
253	0xbef8f3bf	-0.48623464
254	0xbe8d29c4	-0.27570927
255	0x3fe867e4	1.8156705

net.0.bias f4 [128]
0	0xbec24cf9	-0.3794935
1	0xbe29ed3f	-0.16594408
2	0x3f647ca2	0.89252675
3	0x3eb8ac1d	0.36068812
4	0xbe50f999	-0.20407714
5	0xbf1c1764	-0.6097319
6	0xbdac73e6	-0.084205434
7	0xbef6c6cd	-0.48198548
8	0xbee3afb1	-0.4446998
9	0x3f7f0d5e	0.9962977
10	0x3d4dd6d6	0.05025371
11	0x3f96e8d5	1.1789805
12	0xbe9f839e	-0.31155103
13	0xbf4d8a60	-0.8028927
14	0xbf33e6f0	-0.7027426
15	0x3f37323f	0.71561044
16	0xbe92c66f	-0.28667018
17	0xbdf2219a	-0.11822815
18	0x3e840609	0.25785854
19	0xbfdb354d	-1.7125641
20	0x3f1cde79	0.61276966
21	0xbeb73e6a	-0.35789806
22	0x3e385c4f	0.18003963
23	0x3fa07fba	1.2538979
24	0xbf2335a9	-0.63753754
25	0xbec2d303	-0.38051614
26	0xbe985ed6	-0.29759854
27	0xbe8ab457	-0.27090713
28	0xbf36866c	-0.7129886
29	0x3f8ad88c	1.0847335
30	0xbe238760	-0.1596961
31	0xbf1478d8	-0.5799689
32	0xbf3250e9	-0.6965471
33	0xbfa1c831	-1.2639219
34	0x3edd3106	0.43201464
35	0xbed77d0a	-0.42087585
36	0x3e9f5ca8	0.3112538
37	0xbf0209c4	-0.5079615
38	0xbe4eff1c	-0.20214504
39	0xbf782a94	-0.9693997
40	0xbe1cfce8	-0.15330851
41	0xbe975d96	-0.29563588
42	0x3f1fa722	0.623644
43	0xbf7b990d	-0.9828041
44	0xbf424c7e	-0.7589797
45	0xbf4ad7f8	-0.7923579
46	0x3f3fca25	0.74917823
47	0x3da889a3	0.08229377
48	0xbf6120a8	-0.87940454
49	0xbda63a88	-0.08116633
50	0xbe5e3f8f	-0.21703933
51	0x3f7bb74b	0.9832656
52	0x3d940746	0.0722795
53	0xbf8c91c0	-1.0981979
54	0xbdf03bf9	-0.11730189
55	0x3f30d9d0	0.69082355
56	0xbd5550c2	-0.05207897
57	0x3e2b0680	0.16701698
58	0xbd262ca2	-0.04056991
59	0x3c879894	0.016552247
60	0xbe936d98	-0.2879455
61	0x3db1e8a4	0.08686951
62	0xbe346f9b	-0.17620699
63	0xbf124159	-0.5713096
64	0xbe75be1b	-0.239983
65	0xbd6a7dab	-0.057248753
66	0x3dd30429	0.10303528
67	0xbf6629f6	-0.8990778
68	0xbf9cb401	-1.2242433
69	0x3ed12c64	0.4085418
70	0xbddadf22	-0.106870905
71	0xbf375000	-0.71606445
72	0xbe75b22f	-0.23993753
73	0xbe7bc692	-0.24587467
74	0xbe2401f2	-0.16016367
75	0x3f5be2df	0.8589305
76	0xbe4ddde6	-0.20104179
77	0xbecc0a2f	-0.3985152
78	0xbeb23ffd	-0.34814444
79	0x3f88cd94	1.0687737
80	0x3e83586f	0.25653407
81	0xbf31310a	-0.6921545
82	0x3f4b0ae2	0.7931348
83	0xbe939833	-0.28827056
84	0xbf486952	-0.78285706
85	0x3e76007e	0.24023625
86	0x3eee6c82	0.4656716
87	0xbde08f18	-0.10964793
88	0xbf89b6aa	-1.075887
89	0x3c2995b7	0.010350636
90	0xbe4c1c2f	-0.19932626
91	0x3e50a3a9	0.20374931
92	0x3f8bf3b5	1.0933748
93	0xbea1efda	-0.31628305
94	0x3e2d80f1	0.16943718
95	0x3cd5f7cd	0.026119137
96	0xbf02e26c	-0.5112674
97	0x3f06a202	0.52590954
98	0xbef0e87b	-0.4705237
99	0x3e07c2ad	0.13257857
100	0x3dfb80d1	0.12280429
101	0xbd6c36b0	-0.05766934
102	0x3ea2f02d	0.31823865
103	0x3fa2b9e1	1.2712976
104	0xbce71e4e	-0.028212693
105	0x3e4aca9c	0.19803852
106	0xbf44f343	-0.7693369
107	0x3c86ecea	0.016470391
108	0x3f689090	0.90845585
109	0xbd830d59	-0.0639903
110	0x3eca8352	0.39553314
111	0x3c400d50	0.011721924
112	0x3d64217c	0.055695996
113	0xbf2fbe1b	-0.6864945
114	0xbece4d88	-0.40293527
115	0xbf088ac2	-0.5333673
116	0xbf833083	-1.024918
117	0xbe6a440e	-0.22877523
118	0xbec97701	-0.39348605
119	0x3f8db402	1.1070559
120	0xbf3be86f	-0.7340154
121	0x3d65e8cb	0.05613021
122	0xbef2463c	-0.4731921
123	0xbe4d9653	-0.20076875
124	0xbe2a33e9	-0.16621365
125	0xbcd4214e	-0.025894787
126	0xbf18543a	-0.5950352
127	0xbf84b477	-1.0367573

net.2.weight f4 [64, 128]
0	0x3e8dc3df	0.276885
1	0xbe0b33b2	-0.13593939
2	0xbe9794c0	-0.29605675
3	0x3d83a469	0.06427843
4	0xbdb38dfc	-0.08767316
5	0xbd0e19cb	-0.034692567
6	0xbf34d12d	-0.70631677
7	0x3cfe406d	0.03103658
8	0x3da3f6c0	0.08006048
9	0xbf3087e9	-0.6895738
10	0xbd3206a3	-0.04346336
11	0xbf9346af	-1.1505946
12	0x3e87e318	0.26540446
13	0x3dafc7a1	0.08582998
14	0xbe0a4eb4	-0.13506585
15	0xbf0a499b	-0.54018563
16	0x3da72ab5	0.081624426
17	0xbe78651e	-0.24257323
18	0xbf4f2c72	-0.80927193
19	0xbdb03663	-0.086041234
20	0xbe771986	-0.2413083
21	0x3ee7f921	0.45307258
22	0xbeb3367f	-0.35002515
23	0xbfc7b931	-1.5603391
24	0x3c30a9e6	0.010782694
25	0xbf7dd4b7	-0.991527
26	0x3d92b765	0.07163886
27	0x3d7ae8ca	0.06125716
28	0xbe8745d8	-0.26420474
29	0xbd42e5be	-0.04758238
30	0x3da411bb	0.08011194
31	0x3edfe136	0.4372651
32	0x3d754ba8	0.059886605
33	0x3e727394	0.23676902
34	0x3ce457a6	0.027873825
35	0xbd77f342	-0.060534723
36	0xbf699b26	-0.9125236
37	0xbe6dba82	-0.23215678
38	0xbeb8733c	-0.36025417
39	0x3f15058f	0.58211607
40	0xbef51e1f	-0.47874543
41	0x3ed1f826	0.41009635
42	0xbf271897	-0.65271896
43	0x3e315789	0.17318548
44	0x3ec64f2d	0.3873228
45	0x3ea8caf4	0.3296734
46	0xbe2f35ed	-0.17110415
47	0x3dab1a3b	0.083546124
48	0x3ef82d03	0.4847184
49	0xbdf400be	-0.11914204
50	0xbd3c3dfd	-0.045957554
51	0xbfa1ec1f	-1.2650183
52	0x3db2fcc5	0.08739618
53	0xb99f938d	-0.00030436777
54	0xbd9c85fc	-0.07642743
55	0xbe92e550	-0.28690577
56	0x3ea38236	0.3193528
57	0x3d91af65	0.07113532
58	0x3d60ce2c	0.05488412
59	0xbe335604	-0.17513281
60	0x3d06ae10	0.032880843
61	0x3d19da07	0.037561443
62	0xbe9a9079	-0.3018835
63	0x3e0b7f2a	0.13622728
64	0xbd297a70	-0.04137653
65	0xbee74008	-0.4516604
66	0xbe940486	-0.289097
67	0xbbcc538c	-0.0062355455
68	0x3e650a19	0.22367133
69	0xbf610946	-0.87904775
70	0xbf0e0c2a	-0.5548731
71	0x3e96cc06	0.29452533
72	0x3db77782	0.08958341
73	0xbdfb767f	-0.12278461
74	0xbad87ccd	-0.0016516686
75	0xbec77b82	-0.38961416
76	0xbcdd6de7	-0.027029945
77	0xbf6aa481	-0.91657263
78	0x3d877a69	0.06615145
79	0xbf7d66b4	-0.9898484
80	0x3e18a185	0.14905365
81	0xbc521af1	-0.012823806
82	0xbf1d3774	-0.6141274
83	0xba848800	-0.0010111332
84	0xbeda49c2	-0.42634398
85	0xbf00ee98	-0.50364065
86	0xbe127f54	-0.14306384
87	0xbdfc2635	-0.12311975
88	0xbbfe9474	-0.007769162
89	0xbf13bfe7	-0.57714695
90	0xbeb8a830	-0.36065817
91	0xbea9a7b5	-0.33135763
92	0xbfaab409	-1.3336192
93	0x3cc96eac	0.024588905
94	0xbe4bd914	-0.19907027
95	0xbf3dd9ce	-0.7416047
96	0x3f0ff3de	0.56231487
97	0xbed032fd	-0.406639
98	0x3bceb59a	0.0063082697
99	0x3e91285a	0.28351098
100	0xbcfc1a49	-0.030774252
101	0xbeaeffeb	-0.34179625
102	0x3dd53350	0.10410178
103	0x3c0f2d58	0.008738838
104	0xbe559e48	-0.20861161
105	0xbf3c5fb1	-0.73583513
106	0xbe649f2b	-0.22326343
107	0xbdecc80f	-0.11561596
108	0xbecde5ac	-0.40214288
109	0xbeab35ba	-0.33439428
110	0xbe53bd04	-0.20677572
111	0xbdedbafd	-0.11607931
112	0xbf117772	-0.56822884
113	0xbe4276b8	-0.189906
114	0xbe005824	-0.12533623
115	0x3e500d47	0.20317565
116	0xbd98c41a	-0.074592784
117	0x3db43ac2	0.0880027
118	0x3c0c5b78	0.00856673
119	0xbe91fb90	-0.2851224
120	0x3ee4a180	0.44654465
121	0xbde4e571	-0.11176575
122	0x3de1508a	0.1100169
123	0xbf02e4bf	-0.5113029
124	0x3d89c1cb	0.06726416
125	0xbf09c38c	-0.53814006
126	0x3ce6be62	0.028166953
127	0xbe04b399	-0.12959136
128	0xbf7b1c4b	-0.98090047
129	0x3dfeec44	0.12447408
130	0xbff9250f	-1.9464434
131	0xbf7fa717	-0.99864334
132	0x3ba1d4e0	0.0049387068
133	0x3ee0318e	0.43787807
134	0x3e2ca680	0.1686039
135	0x3dc468b2	0.095902815
136	0xbdbf1d08	-0.09331709
137	0xbf0aec84	-0.54267144
138	0xbefad2c6	-0.48988932
139	0x3cbab9be	0.022793647
140	0x3e7f6b5c	0.24943298
141	0xbd1ef0d4	-0.03880389
142	0xbd56b6f7	-0.052420583
143	0xbecd0aba	-0.40047246
144	0x3e941235	0.2892014
145	0x3d561e17	0.05227479
146	0xbe882eb0	-0.2659812
147	0xbf751953	-0.95741767
148	0xbecbc724	-0.3980037
149	0xbe7ccb01	-0.24686815
150	0xbe833ea7	-0.25633737
151	0xbfa55d22	-1.2919047
152	0x3f024acc	0.5089538
153	0xbf7eff1b	-0.9960801
154	0x3d9bb6c1	0.07603217
155	0xbe9a9b33	-0.30196533
156	0xbe52a5f5	-0.2057112
157	0xbe8e4f94	-0.27795088
158	0xbc08bb8b	-0.008345495
159	0xbe2f800f	-0.17138694
160	0x3ef76aae	0.48323578
161	0x3e8eda39	0.27900866
162	0xbe1111d6	-0.1416696
163	0xbf179c00	-0.5922241
164	0x3ecf5d9f	0.40501115
165	0xbf10b5ea	-0.5652758
166	0x3b843631	0.0040347804
167	0xc003c9b5	-2.0591862
168	0xbf088bd2	-0.5333835
169	0xbf27a062	-0.654791
170	0xbe0c0138	-0.1367234
171	0x3ef0d87e	0.4704017
172	0xbec83858	-0.39105487
173	0xbe5ef295	-0.21772225
174	0xbeff959e	-0.49918836
175	0x3c15149c	0.009099152
176	0x3e1d3268	0.1535126
177	0x3da8549c	0.08219263
178	0xbdd3347c	-0.10312745
179	0xbe3afaf2	-0.1825979
180	0xbd085974	-0.033288434
181	0xbf135113	-0.57545584
182	0x3dd19b2e	0.10234676
183	0xbf940404	-1.1563725
184	0xbee789b1	-0.45222238
185	0xbea7157e	-0.32633585
186	0x3ea204c0	0.3164425
187	0xbf3e8e29	-0.7443567
188	0x3d1be1fe	0.03805732
189	0xbf10a93a	-0.5650822
190	0xbebe8ec7	-0.37218305
191	0x3d943c10	0.072380185
192	0x3dde91c3	0.108676456
193	0xc00a2a23	-2.1588218
194	0xbf49b6b9	-0.7879444
195	0x3e199b1d	0.15000577
196	0xbef0f4b3	-0.4706169
197	0xbf2d8ce1	-0.6779309
198	0xbf07743b	-0.5291173
199	0xbed68073	-0.41894874
200	0xbe40d442	-0.1883097
201	0x3dd6a130	0.10479963
202	0x3d00feda	0.031493045
203	0xbcf30e81	-0.029670002
204	0xbd268c21	-0.04066098
205	0xbdd3b7e5	-0.103378095
206	0x3d7a34ff	0.061085697
207	0xbe2d9ae6	-0.1695362
208	0xbf13b46b	-0.5769717
209	0x3e3643cc	0.177993
210	0xbf1ef667	-0.6209473
211	0x3d761bfa	0.060085274
212	0xbe089b5b	-0.13340513
213	0xbec6ad5f	-0.38804147
214	0xbb6098e3	-0.0034270815
215	0xbe75dcaf	-0.24009965
216	0x3e153463	0.14570765
217	0xbf3f94be	-0.7483634
218	0x3d161bea	0.036647715
219	0xbec0d1e5	-0.37660137
220	0xbd6f9513	-0.058491778
221	0x3d8f592f	0.06999432
222	0xbbddbed4	-0.0067671333
223	0xbd4035cb	-0.0469263
224	0xbe5de795	-0.21670373
225	0xbe5e2c13	-0.216965
226	0x3e4887e9	0.19583096
227	0xbe70929f	-0.23493432
228	0xbf01b62c	-0.506686
229	0xbea14592	-0.3149839
230	0xbe4d349e	-0.20039603
231	0xbf009443	-0.5022623
232	0xba31ca2c	-0.000678214
233	0xbee1433f	-0.43996617
234	0x3d19b674	0.037527516
235	0xbf5ab026	-0.8542503
236	0xbdb84854	-0.089981705
237	0xbea29516	-0.3175437
238	0xbdefcf0b	-0.11709412
239	0xbe69b0cc	-0.22821349
240	0xbe9fbc3c	-0.311983
241	0x3e010b80	0.12602043
242	0x3e22d33a	0.15900889
243	0xbd9fd025	-0.07803372
244	0xbe9cf7c0	-0.30657768
245	0x3d2f4a71	0.042795602
246	0xbd90039c	-0.070319384
247	0xbee392a1	-0.44447806
248	0x3dcd4a88	0.10023981
249	0xbdec3811	-0.11534131
250	0x3c2b3a5b	0.010450925
251	0xbef039f0	-0.46919203
252	0x3c867e41	0.016417624
253	0xbfd1a9fa	-1.6379998
254	0x3cb73ed9	0.022368835
255	0xbe1a9e6b	-0.15099494

net.2.bias f4 [64]
0	0xbe6bca17	-0.2302631
1	0x3e12a8fa	0.14322272
2	0xbd51e51b	-0.051243883
3	0xbd9b474b	-0.075819574
4	0xbe0e9148	-0.13922608
5	0xbd0df1b1	-0.034654323
6	0xbe420b29	-0.1894957
7	0xbe0f95e1	-0.14022018
8	0xbd59f27a	-0.05320976
9	0xbdb34088	-0.08752543
10	0xbdb3430b	-0.08753022
11	0xbdc3f75f	-0.09568667
12	0xbe0bc6a2	-0.13649991
13	0xbde55436	-0.111977026
14	0xbdc9d6e6	-0.09855442
15	0xbe933446	-0.2875082
16	0x3c5ac423	0.013352427
17	0xbd6fcd82	-0.058545597
18	0xbdb44320	-0.088018656
19	0x3e22807e	0.15869328
20	0xbd3511b3	-0.044206332
21	0xbe36ad4f	-0.1783955
22	0xbda1f346	-0.07907729
23	0xbe869499	-0.26285246
24	0xbd9a6bde	-0.07540105
25	0xbd39814b	-0.04528932
26	0xbdc1494a	-0.09437807
27	0xbdba49a6	-0.090960786
28	0xbdd2974e	-0.10282765
29	0x3f7ecf05	0.99534637
30	0x3d22e8cf	0.039772805
31	0x3f88a9f3	1.0676864
32	0xbd6d720c	-0.05797009
33	0xbd457082	-0.048203
34	0x3d99857d	0.07496164
35	0xbe08f2f6	-0.13373932
36	0xbd8ede2c	-0.0697597
37	0x3e6235f5	0.22090895
38	0xbdca8c61	-0.098900564
39	0xbcb83ae9	-0.022489028
40	0xbcead28c	-0.02866485
41	0xbe152333	-0.14564209
42	0xbe238405	-0.1596833
43	0xbde0e0ad	-0.109803535
44	0xbe0b6278	-0.13611782
45	0xbd3fd288	-0.046831638
46	0xbda6391b	-0.08116361
47	0xbdcf22ad	-0.10114036
48	0xbd12081a	-0.035652258
49	0xbe05c416	-0.13063082
50	0xbdc6fd9f	-0.09716343
51	0xbc95ac5b	-0.018270662
52	0xbd420748	-0.047370225
53	0xbddd5072	-0.10806359
54	0xbd6c9572	-0.05775971
55	0xbda5b063	-0.08090284
56	0xbdfca9ef	-0.123371
57	0x3f172da2	0.59054005
58	0xbc69f966	-0.014280653
59	0xbc540571	-0.01294075
60	0x3cc49130	0.023995012
61	0xbdfb0e55	-0.12258593
62	0xbde2badb	-0.11070796
63	0xbce1ec1a	-0.027578402

net.4.weight f4 [3, 64]
0	0xbf5d9b18	-0.8656478
1	0x3f1e6783	0.61876696
2	0xbd96ef7e	-0.07369898
3	0x3daeaf9b	0.08529588
4	0xbf05aab6	-0.5221361
5	0xbe525ab9	-0.2054242
6	0x3d86b51f	0.06577515
7	0x3cd6dd18	0.026228473
8	0xbd296db5	-0.04136439
9	0xbef06488	-0.469517
10	0x3d294319	0.041323755
11	0xbdfab5e1	-0.12241722
12	0x3e059433	0.13044815
13	0xbe52753f	-0.20552538
14	0x3d5c51b0	0.05378884
15	0xbdd40637	-0.10352748
16	0x3ee0f79d	0.43938914
17	0xbddc26b8	-0.107495725
18	0x3ca193a0	0.019723713
19	0xbf624446	-0.88385427
20	0x3ce76b5f	0.02824944
21	0xbc9afdb9	-0.018919813
22	0xbdebf6a4	-0.11521652
23	0xbea4670b	-0.32109866
24	0x3e4f5163	0.2024589
25	0xbdafbb39	-0.08580632
26	0xbcb3ee3b	-0.021964183
27	0xbca4f638	-0.020136937
28	0x3d256fb5	0.040389735
29	0x3f11d8dc	0.56971526
30	0x3e5bc4ff	0.21461867
31	0x3f0e8041	0.5566445
32	0x3d1f2ecc	0.03886299
33	0xbd45b5f0	-0.048269212
34	0x3e3485e3	0.17629199
35	0x3f0a950c	0.5413368
36	0x3cb162d1	0.021653565
37	0xbf86d199	-1.0532714
38	0x3e26cdf5	0.16289504
39	0xbc70305c	-0.014659967
40	0x3e9f7574	0.31144297
41	0xbb39cf47	-0.0028352307
42	0x3e87b9c6	0.2650892
43	0x3da1e4a3	0.07904937
44	0xbccc9487	-0.024973167
45	0xbf0a5471	-0.540351
46	0xbd9257e0	-0.07145667
47	0xbc958533	-0.01825199
48	0xbf21b297	-0.6316313
49	0xbb3d994b	-0.002893048
50	0xbbc40d2d	-0.005983016
51	0x3e9595b5	0.2921578
52	0x3ce1100b	0.02747347
53	0x3d775fb8	0.06039402
54	0x3d2462d8	0.040133327
55	0xbf602a23	-0.87564296
56	0x3d0af1a6	0.03392186
57	0xbf13ca10	-0.577302
58	0x3e2e97fc	0.17050165
59	0x3de3c675	0.11121837
60	0x3d262921	0.040566567
61	0xbdb82fb6	-0.08993475
62	0x3cc8e11a	0.0245214
63	0x3c512aa3	0.012766513
64	0xbf2aaf55	-0.66673785
65	0x3ebcc37a	0.36867887
66	0xbd8f2a10	-0.06990445
67	0x3d918c92	0.0710689
68	0xbf3fc4c3	-0.7490961
69	0xbea88604	-0.32914746
70	0x3eddc659	0.4331539
71	0x3d682284	0.05667354
72	0xbc474360	-0.01216206
73	0xbe6b600c	-0.22985858
74	0xbd4401da	-0.04785333
75	0x3b8d02f8	0.0043033324
76	0xbbdf99f0	-0.0068237707
77	0x3f2c01cd	0.6719025
78	0xbd2232f2	-0.039599366
79	0x3eb4bb78	0.35299277
80	0x3dd906be	0.10596989
81	0x3e102de6	0.14080009
82	0xbebee287	-0.37282202
83	0xbf902255	-1.1260477
84	0x3c7a6bd6	0.015284499
85	0xbbc4fffb	-0.0060119606
86	0x3d2961c7	0.041353013
87	0xbde72bfc	-0.11287686
88	0x3e4c2e0c	0.1993944
89	0x3d97cee0	0.07412505
90	0x3d8fa52b	0.07013925
91	0xbe119f63	-0.14220957
92	0xbda16a1d	-0.078815676
93	0x3f223432	0.63360894
94	0xbe93d587	-0.28873846
95	0x3efc68ce	0.4929871
96	0xbb40d940	-0.0029426366
97	0xbd2ac83d	-0.04169487
98	0x3e5fff5e	0.21874759
99	0x3efe0e3d	0.49620238
100	0xbc4d8533	-0.012543964
101	0xbf58d2a2	-0.846964
102	0xbe48c4d4	-0.19606334
103	0x3ca52907	0.020161165
104	0xbc71f5ab	-0.014768044
105	0xbbcc0f00	-0.006227374
106	0xbe2ef63e	-0.17086121
107	0x3cd241c3	0.025666123
108	0xbd7c91ac	-0.06166236
109	0xbdbaeb00	-0.09126854
110	0x3d0cadbb	0.03434537
111	0xbda87adf	-0.08226561
112	0xbf0b36bb	-0.5438039
113	0x3e2037b2	0.15646246
114	0x3c06e959	0.008234345
115	0x3dd2e213	0.102970265
116	0xbd8bd701	-0.06828118
117	0xbde630e8	-0.11239797
118	0xbd7ee99c	-0.062234506
119	0xbe964c9d	-0.29355326
120	0x3d785267	0.06062546
121	0xbf2b4983	-0.66909045
122	0x3d87bc66	0.06627731
123	0x3d26ed1c	0.04075347
124	0xbe614110	-0.21997476
125	0x3d035d02	0.03207112
126	0xbdcb9965	-0.09941367
127	0xbd9cfd4a	-0.076654986
128	0xbef5d845	-0.48016563
129	0x3d9db87a	0.07701202
130	0xbb952080	-0.0045509934
131	0xbe4cdef3	-0.20006923
132	0xbe9c434f	-0.30520102
133	0x3e941ee5	0.2892982
134	0x3ec0f1f5	0.376846
135	0x3c801950	0.01563707
136	0xbc95ce61	-0.018286886
137	0x3e1b5840	0.15170383
138	0x3ce8d199	0.028420256
139	0xbe1029da	-0.14078465
140	0xbdd08c4d	-0.1018301
141	0x3f12b05c	0.57300353
142	0xbd8a38ea	-0.06749137
143	0x3f009cf2	0.5023948
144	0xbe20e935	-0.15713961
145	0x3dfe08a4	0.12403992
146	0xbec3b9c1	-0.38227656
147	0xbf72860d	-0.94735795
148	0x3c46afcf	0.012126877
149	0x3c2e08a7	0.01062218
150	0x3e6ce5cd	0.23134537
151	0x3e9ed024	0.31018174
152	0x3f0b49cf	0.544095
153	0xbd5c4241	-0.053774122
154	0x3cacef9a	0.021110345
155	0x3c1dfecc	0.009643268
156	0xbcbd05c7	-0.023074044
157	0x3f869616	1.0514553
158	0xbedb3780	-0.4281578
159	0x3e46d6b9	0.19417848
160	0xbde2ee99	-0.11080665
161	0xbdef7aec	-0.11693367
162	0xbe5595ec	-0.20857972
163	0x3ebbe7e6	0.36700362
164	0xbcad27ce	-0.021137144
165	0xbeb38b16	-0.35067052
166	0x3e3fea56	0.18741736
167	0xbccde2d3	-0.025132572
168	0xbe255265	-0.16144712
169	0xbd149189	-0.036271606
170	0xbe4fb997	-0.2028564
171	0x3b0f4a97	0.0021864527
172	0xbd75ffda	-0.060058452
173	0x3e799d63	0.24376445
174	0x3d948df9	0.07253642
175	0xbd7351f3	-0.059404325
176	0xbd6b3d84	-0.057431713
177	0x3f0651cf	0.5246858
178	0xbd798a35	-0.06092282
179	0xbdadfe80	-0.08495808
180	0x3bdade18	0.0066793077
181	0xbd811c7b	-0.0630426
182	0x3c48a7fb	0.012247081
183	0x3ee11b41	0.43966106
184	0x3ba16529	0.0049253893
185	0xbf009394	-0.50225186
186	0xbd9a6ddf	-0.075404875
187	0x3d90d6e4	0.07072237
188	0x3ea078e8	0.31342244
189	0xbe1898d2	-0.14902046
190	0xbec389ff	-0.3819122
191	0xbd97d8a0	-0.07414365

net.4.bias f4 [3]
0	0xbe11e79d	-0.1424851
1	0xbd8c097c	-0.068377465
2	0xbe66b42f	-0.22529672
